…
ion='relu'),\rlayers.MaxPooling2D(),\rlayers.Flatten(),\rlayers.Dense(128, activation='relu'),\rlayers.Dense(num_classes)\r])\rI choose the optimizers.Adam optimizer and losses.SparseCategoricalCrossentropy loss function.\nmodel.compile(optimizer='adam',\rloss=tf.keras.losses.SparseCategoricalCrossentropy(from_logits=True),\rmetrics=['accuracy'])\rmodel.summary()\rModel: \u0026quot;sequential\u0026quot;\r_________________________________________________________________\rLayer (type) Output Shape Param # =================================================================\rrescaling_1 (Rescaling) (None, 224, 256, 3) 0 _________________________________________________________________\rconv2d (Conv2D) (None, 224, 256, 16) 448 _________________________________________________________________\rmax_pooling2d (MaxPooling2D) (None, 112, 128, 16) 0 _________________________________________________________________\rconv2d_1 (Conv2D) (None, 112, 128, 32) 4640 _________________________________________________________________\rmax_pooling2d_1 (MaxPooling2 (None, 56, 64, 32) 0 _________________________________________________________________\rconv2d_2 (Conv2D) (None, 56, 64, 64) 18496 _________________________________________________________________\rmax_pooling2d_2 (MaxPooling2 (None, 28, 32, 64) 0 _________________________________________________________________\rflatten (Flatten) (None, 57344) 0 _________________________________________________________________\rdense (Dense) (None, 128) 7340160 _________________________________________________________________\rdense_1 (Dense) (None, 3) 387 =================================================================\rTotal params: 7,364,131\rTrainable params: 7,364,131\rNon-trainable params: 0\r_________________________________________________________________\rTrain the model epochs=10\rhistory = model.fit(\rtrain_ds,\rvalidation_data=val_ds,\repochs=epochs\r)\rEpoch 1/10\r32/32 [==============================] - 36s 1s/step - loss: 0.9313 - a
…
