…
&lt;pre&gt;&lt;code class=&#34;language-python&#34;&gt;model.compile(optimizer=&#39;adam&#39;,
              loss=tf.keras.losses.SparseCategoricalCrossentropy(from_logits=True),
              metrics=[&#39;accuracy&#39;])
&lt;/code&gt;&lt;/pre&gt;
&lt;pre&gt;&lt;code class=&#34;language-python&#34;&gt;model.summary()
&lt;/code&gt;&lt;/pre&gt;
&lt;pre&gt;&lt;code&gt;Model: &amp;quot;sequential&amp;quot;
_________________________________________________________________
Layer (type)                 Output Shape              Param #   
=================================================================
rescaling_1 (Rescaling)      (None, 224, 256, 3)       0         
_________________________________________________________________
conv2d (Conv2D)              (None, 224, 256, 16)      448       
_________________________________________________________________
max_pooling2d (MaxPooling2D) (None, 112, 128, 16)      0         
_________________________________________________________________
conv2d_1 (Conv2D)            (None, 112, 128, 32)      4640      
_________________________________________________________________
max_pooling2d_1 (MaxPooling2 (None, 56, 64, 32)        0         
_________________________________________________________________
conv2d_2 (Conv2D)            (None, 56, 64, 64)        18496     
_________________________________________________________________
max_pooling2d_2 (MaxPooling2 (None, 28, 32, 64)        0         
_________________________________________________________________
flatten (Flatten)            (None, 57344)             0         
_________________________________________________________________
dense (Dense)                (None, 128)               7340160   
_________________________________________________________________
dense_1 (Dense)              (None, 3)                 387       
=================================================================
Total params: 7,364,131
Trainable params: 7,364,131
Non-trainable params: 0
_________________________________________________________________
&lt;/code&gt;&lt;/pre&gt;
&lt;h3 id=&#34;train-the-model&#34;&gt;Train the model&lt;/h3&gt;
&lt;pre&gt;&lt;code class=&#34;language-python&#34;&gt;epochs=10
history = model.fit(
  train_ds,
…
